…
    "x_test /= 255\n",
    "\n",
    "print('x_train shape:', x_train.shape)\n",
    "print(x_train.shape[0], 'train samples')\n",
    "print(x_test.shape[0], 'test samples')"
   ]
  },
  {
   "cell_type": "code",
   "execution_count": 12,
   "metadata": {
    "tags": []
   },
   "outputs": [
    {
     "output_type": "stream",
     "name": "stdout",
     "text": "Model: \"sequential_2\"\n_________________________________________________________________\nLayer (type)                 Output Shape              Param #   \n=================================================================\nconv2d_4 (Conv2D)            (None, 26, 26, 32)        320       \n_________________________________________________________________\nconv2d_5 (Conv2D)            (None, 24, 24, 64)        18496     \n_________________________________________________________________\nmax_pooling2d_2 (MaxPooling2 (None, 12, 12, 64)        0         \n_________________________________________________________________\ndropout_4 (Dropout)          (None, 12, 12, 64)        0         \n_________________________________________________________________\nflatten_2 (Flatten)          (None, 9216)              0         \n_________________________________________________________________\ndense_4 (Dense)              (None, 256)               2359552   \n_________________________________________________________________\ndropout_5 (Dropout)          (None, 256)               0         \n_________________________________________________________________\ndense_5 (Dense)              (None, 10)                2570      \n=================================================================\nTotal params: 2,380,938\nTrainable params: 2,380,938\nNon-trainable params: 0\n_________________________________________________________________\n"
    }
   ],
   "source": [
    "model = Sequential()\n",
    "model.add(Conv2D(32, kernel_size=(3, 3),activation='relu',input_shape=input_shape))\n",
    "model.add(Conv2D(64, (3, 3), activation='relu'))\n",
…
